…
[2024-05-31 14:28:23,053][root][INFO] -                                                                   Setting the model                                                                   
[2024-05-31 14:28:23,053][root][INFO] - ####################################                                                                              ####################################
[2024-05-31 14:28:23,053][root][INFO] - ######################################################################################################################################################
[2024-05-31 14:28:23,053][root][INFO] - ITransformer(
  (loss): QuantileLossMO()
  (embs): ModuleList(
    (0): Embedding(25, 32)
    (1): Embedding(8, 32)
  )
  (enc_embedding): DataEmbedding_inverted(
    (value_embedding): Linear(in_features=168, out_features=32, bias=True)
    (dropout): Dropout(p=0.25, inplace=False)
  )
  (encoder): Encoder(
    (attn_layers): ModuleList(
      (0-1): 2 x EncoderLayer(
        (attention): AttentionLayer(
          (inner_attention): FullAttention(
            (dropout): Dropout(p=0.25, inplace=False)
          )
          (query_projection): Linear(in_features=32, out_features=32, bias=True)
          (key_projection): Linear(in_features=32, out_features=32, bias=True)
          (value_projection): Linear(in_features=32, out_features=32, bias=True)
          (out_projection): Linear(in_features=32, out_features=32, bias=True)
        )
        (conv1): Conv1d(32, 64, kernel_size=(1,), stride=(1,))
        (conv2): Conv1d(64, 32, kernel_size=(1,), stride=(1,))
        (norm1): LayerNorm((32,), eps=1e-05, elementwise_affine=True)
        (norm2): LayerNorm((32,), eps=1e-05, elementwise_affine=True)
        (dropout): Dropout(p=0.25, inplace=False)
        (activation): PReLU(num_parameters=1)
      )
    )
    (norm): LayerNorm((32,), eps=1e-05, elementwise_affine=True)
  )
  (projector): Linear(in_features=32, out_features=144, bias=True)
)
[2024-05-31 14:28:23,054][root][INFO] - 

[2024-05-31 14:28:23,054][root][INFO] - ######################################################################################################################################################
[2024-05-31 14:28:23,054][root][INFO] - ####################################                                                                              ####################################
…
